DNN/The best saved model/best_model0.pth (torch, 62752 bytes, 20 tensors)

fc1.weight f4 [128, 3]
00000000: f05d d63e 907e c7be 618e 083f d6b4 bc3e
00000010: 6c6f 083f 53ab 033f 0709 13be 26f6 3b3e
00000020: 0e85 103f 5496 ce3e ffe0 b03e 5ecb 0a3f
00000030: b48d cf3e cfa8 5b3e be0b 233e 80d8 debe
00000040: a237 c7be ea49 04bf c729 f9bd ff65 f8bc
00000050: d341 f03e 5b33 0d3f 6414 fbbe 10fd 0d3f
00000060: 9a8c cc3d 94fa 4dbe 5b83 89be d98e b8bd
00000070: f6b6 5ebe 42b8 e0be 6359 063e 8aa6 e8be
00000080: 9d5c b6be e5f0 e2be 8b91 093e 1240 8f3e
00000090: fbb0 02be a590 733e 54f0 cbbe 8771 0abf
000000a0: b038 07be 5418 12bf 583b cf3e 62d3 eebd
000000b0: 6d49 6cbd dad5 2d3e 76ea 07bf 1903 38bd
000000c0: 656b 0dbf 594a e9be 1a39 0cbe 3c64 8a3e
000000d0: 0b62 903c 8bca 993e 0558 1c3e 3702 97be
000000e0: 24e2 02bf 2825 1c3d 8aa6 63be db83 86be
000000f0: c00d 7b3e 23d2 ffbe f8bc 4fbe 1902 7cbc
00000100: 084f 99bd ef19 89be e6cb 0ebf 7d39 0cbf
00000110: c067 0d3e 87f6 b0be b7fc 0abf 00e6 a43e
00000120: 0f49 7dbe 5b12 933e ca06 533c 5666 d5bd
00000130: aa79 84be ae4f bbbe eb40 973e 721c c53e
00000140: 5a37 6d3e db13 99bd 4001 0c3f 2459 11bf
00000150: db7f a9be 78a7 eebe 1602 083f efec 3dbc
00000160: f8f0 a5be 0533 37be 5b2b 113f 1bb2 d6be
00000170: f3bf aabd 4c77 06bf b59d cf3d ff5d c2bd
00000180: 11dd 8ebe 4b4c da3e e5cd 503e 933e 2b3d
00000190: 9fc5 9dbe 68e2 5fbe 4146 193f c45f efbd
000001a0: ee16 483e 793e 623d 4f9c 5cbe 2e97 df3e
000001b0: 1bf4 92be 33fa f63e 7353 6e3e 4ad3 313e
000001c0: fee7 c8be 7550 13be 8ddd 943d f9af b73d
000001d0: aee2 013f 9903 dd3e 5e73 2bbd 95f1 8fbd
000001e0: 3b80 0ebf d6c3 5ebd ec3e f6be f23e 4bbd
000001f0: 37ca 0f3e 729b 45bd 68f4 e5be eb03 0ebf
00000200: e2fe febe 35aa e03e 7a58 0c3e 9a47 eabd
00000210: 8058 a03a 6ed3 80be 4d70 43be cb0d d63e
00000220: 5798 16bd fc8a 133f 81cd 493e cffb d5be
00000230: 3497 c03e 0fb0 e8be bbe1 e7be e4a3 d0bd
00000240: 24a2 7cbe b248 62be f7c1 09bf d8cf 91bc
00000250: b2eb 9ebe 647c debe 812e 053e aa7b f63e
00000260: 5e60 f2be 4fcf 24be 86ee cfbe 92a9 a63e
00000270: 7ad7 9cbe e1a7 08bf c19c 873e 7fae 8c3d
00000280: 8783 24be 6965 4ebe 6d37 933e c187 0d3f
00000290: 50ec 9ebe 12e4 bb3e 8ec2 ac3e 7020 c0be
000002a0: 5366 39bd e839 ba3e b68c 163f c70e aaba
000002b0: f176 e53d 4d62 753d 6cd1 8dbd 87fc e23e
000002c0: 53b4 bcbd d86b 9ebe 9f08 853d 2259 8ebe
000002d0: ff68 01bf f6da 0838 ebc7 8fbc 03f9 db3e
000002e0: c342 503e 5407 ed3e 1d16 b63d 6d56 123e
000002f0: 3666 0bbf 1224 84be f4c9 93be 0e71 913e
00000300: e5c7 36be 95d0 1c3d a792 92be b5b1 0dbf
00000310: 73d1 ddbd 7098 403d f984 48bd 4b4e fc3d
00000320: 8bc8 9b3d ed01 bc3e d171 9cbc f1c3 00bf
00000330: df8d 41bd 61df edbe 4d1a 913d 6034 553e
00000340: 0ab0 02bf f72e 063f 4d4d d53d 879b cb3e
00000350: 62e6 05bf c2ef 193e d3bf d33e 0980 d0be
00000360: b4e1 b3bd be58 0cbf c0e8 dcbe 74c6 08bf
00000370: 8c0d f13d 7b55 383e 3b37 92bd 5cb7 6bbe
00000380: 7e5b 6b3d b9d3 303d d283 e03e f5a5 a93e
00000390: 27db e6be 5517 b63e 6b2d cd3e 739b 62be
000003a0: d4f0 0ebf 5cfd 96be 7a5f 043d 3b3c c23e
000003b0: d0da ddbc c3d3 043e 78b4 513e 74c2 35bc
000003c0: addd 0dbf 2024 dc3e 26f4 b3be 93c9 123f
000003d0: d096 813e 655f 87be 3d6b ccbe 4d31 543e
000003e0: 191e 3b3e b8f0 6c3d 8687 1dbe bd17 063f
000003f0: a090 f13e 8f1f 143f 8392 013f d0bf a33e
0.41868544 -0.38963747 0.5334225 0.36856717 0.53295016 0.51433295 -0.14358912 0.18355617
0.56453025 0.40349066 0.34546658 0.54216564 0.40537798 0.21451114 0.15922448 -0.4352455
-0.38909632 -0.51675284 -0.121661715 -0.030322073 0.4692522 0.5515649 -0.49038994 0.5546427
0.09987755 -0.20115119 -0.2685803 -0.09011621 -0.21749482 -0.43890578 0.13120036 -0.4543956
-0.35617533 -0.44324413 0.13434426 0.2797857 -0.12762825 0.23785646 -0.39831793 -0.5407948
-0.13205218 -0.5706837 0.40474963 -0.11661412 -0.05768721 0.16976109 -0.53092134 -0.04492483
-0.55241996 -0.45564535 -0.13693658 0.27029598 0.017624876 0.3003734 0.15267952 -0.29493877
-0.51126313 0.038121372 -0.22231498 -0.26272473 0.24516964 -0.4996501 -0.2028693 -0.0153813595
-0.07485777 -0.26777598 -0.55779874 -0.5477522 0.13809109 -0.34563085 -0.5429186 0.32206726
-0.24734901 0.28724942 0.012880037 -0.1041991 -0.25874072 -0.36584228 0.29541716 0.38498265
0.23165646 -0.0747449 0.5468941 -0.5677664 -0.33105358 -0.46612144 0.5312818 -0.011592134
-0.32410407 -0.17890556 0.5670678 -0.4193276 -0.08337393 -0.5252578 0.10137502 -0.094905846
-0.27903035 0.42636332 0.20391043 0.041807722 -0.30814835 -0.21863711 0.59872824 -0.11688188
0.19539997 0.05523536 -0.21544002 0.43670028 -0.28701863 0.48237762 0.23274021 0.17365757
-0.39239496 -0.1438616 0.0726882 0.08969111 0.5073651 0.43166807 -0.04185807 -0.070285
-0.55664414 -0.054385982 -0.4809488 -0.049620576 0.14041983 -0.048243947 -0.4491303 -0.5547473
-0.49803835 0.43879858 0.13705626 -0.11439438 0.0012233406 -0.25161308 -0.19085808 0.41807398
-0.036766376 0.5763395 0.197073 -0.41793677 0.3761536 -0.45446822 -0.45289406 -0.1018751
-0.24671227 -0.22098044 -0.5381159 -0.017799303 -0.31039196 -0.43454278 0.13006021 0.48141223
-0.47339147 -0.16094707 -0.40611666 0.32551247 -0.30633146 -0.5338116 0.2648678 0.0686922
-0.16065799 -0.20155872 0.28753224 0.5528527 -0.31039667 0.3669744 0.33742183 -0.37524748
-0.0452636 0.36372304 0.5880846 -0.0012974375 0.11204327 0.0599082 -0.0692471 0.44333288
-0.092140816 -0.30941653 0.06495785 -0.27802378 -0.50550836 3.262885e-05 -0.017551383 0.42963418
0.20337968 0.46294653 0.088909365 0.14290781 -0.54452837 -0.2580877 -0.28865016 0.28406566
-0.17849691 0.038284857 -0.28627512 -0.55349284 -0.10830965 0.047020376 -0.048954938 0.12319621
0.0760661 0.3672022 -0.01909724 -0.5029898 -0.04725444 -0.46459487 0.070850946 0.2082076
-0.51049864 0.5241541 0.104151346 0.39767095 -0.5230466 0.15032867 0.41357288 -0.40722683
-0.08783284 -0.5482291 -0.43146324 -0.53427815 0.11770162 0.18001358 -0.071394406 -0.23019165
0.0574603 0.043170664 0.4385057 0.33134428 -0.45089075 0.35564676 0.40073714 -0.22129612
-0.55836225 -0.29490173 0.032317616 0.37936577 -0.027081877 0.12971406 0.20479 -0.0110937245
-0.55416375 0.4299631 -0.35147208 0.5733883 0.25310373 -0.26439968 -0.39925566 0.20721932
0.182732 0.057846755 -0.1538373 0.5237997 0.47180653 0.57860655 0.50614184 0.3198228

fc1.bias f4 [128]
00000000: c6df 0bbe 1f61 10bf 5902 003f 135d af3d
00000010: b30c 39be 1f83 a33e 352c 4abc ba36 fc3e
00000020: 84f7 743d 5f44 083f 3ccb 803e cc16 05bf
00000030: c3ec f93e e361 403e 3b99 c0bd a938 063f
00000040: 58a7 a1bd 207c efbe 67e6 063f 9b38 61bc
00000050: c2ab 883e f495 86be 9bc0 d0be 42d4 7d3e
00000060: 6665 063f edd8 e5bc 8a70 b93e 92ca cf3d
00000070: 1ab6 c63e ad0b afbe f3c4 cfbe 30dc d7be
00000080: c739 433d f0c6 de3e 4b42 0abf 6611 e5be
00000090: d40c d43e 0c0a 863e e553 70bd 1e8d 4bbe
000000a0: a1d8 bebe 39b1 fd3e 46c6 fa3e 5d08 123f
000000b0: d603 173d 7357 a5be 5cc9 e33e 3c62 b33d
000000c0: 044f 76be 03da a23d a4ba de3e b75a 993d
000000d0: 5523 4c3d d31d f6be 1944 ef3e 8a22 f13d
000000e0: 11d1 1b3d e053 ce3d 366e bdbe 3046 d5be
000000f0: 9a10 813e 9be3 db3e 3453 f0be f880 e43e
00000100: 6d26 e8be 7acd e7be df57 f3be b301 27be
00000110: fe91 2bbe 3df7 8cbe 03b9 033f 9f83 dbbe
00000120: 1892 a4be cb8a fcbd 7e5e ed3e 91b2 0c3f
00000130: 52de 263d d609 013f b134 bb3e 4944 53be
00000140: a198 023e 5ebc c7be 1511 55bd d03f 6bbe
00000150: 7781 0c3e 1e7f 393e 7f16 843e cbc8 12bf
00000160: 1bc0 0f3f cc76 34be e623 9cbe 0722 993e
00000170: caac bbbe f495 613e 9213 b4be ae42 f1be
00000180: 0ed9 e13e e9b7 b83e 27cb 513b c6f7 993e
00000190: d3d6 813e ec98 20be 3cf3 c63d ec4a bf3e
000001a0: 9089 bd3a fec4 cdbe 34fe b9be 1d33 43be
000001b0: 48f6 47be 864b cfbe 3250 aabe 7294 ff3e
000001c0: beb2 84bd 645c bdbe a937 743e 554e d7be
000001d0: 78a1 2cbe f25a ac3e 27c0 703e a6a7 afbe
000001e0: 2f53 bdbe ef0e 083e b689 003f d199 f3be
000001f0: 2587 a03b 2e60 dabe 40a7 7abd 831d f4be
-0.13659582 -0.56398195 0.5000358 0.085626744 -0.1807125 0.31935975 -0.012339641 0.49260503
0.05980636 0.53229326 0.25155056 -0.5198791 0.48813447 0.18787341 -0.094042264 0.52430207
-0.078932464 -0.46774387 0.52695316 -0.013746406 0.2669354 -0.2628628 -0.40771946 0.24788001
0.5249847 -0.02805754 0.36218673 0.10146059 0.38810807 -0.34188595 -0.40579948 -0.42160177
0.047662523 0.43511152 -0.54007405 -0.44739836 0.41416037 0.2617954 -0.058673758 -0.1987805
-0.3727465 0.49549273 0.48979396 0.5704401 0.036868893 -0.3229328 0.44489563 0.08758971
-0.2405358 0.07951739 0.4350177 0.074880056 0.049838383 -0.4806963 0.46731642 0.11774166
0.038041178 0.10074592 -0.36998147 -0.4165511 0.25207978 0.42947087 -0.4693848 0.44629645
-0.45341817 -0.45273954 -0.47527978 -0.16309242 -0.1675491 -0.27532378 0.5145418 -0.42873856
-0.3214271 -0.1233116 0.46361154 0.5495997 0.040739365 0.50405633 0.36563638 -0.20631517
0.12753536 -0.390109 -0.052018244 -0.22973561 0.13721262 0.18114898 0.25798413 -0.57337636
0.56152505 -0.17623442 -0.30496138 0.29908773 -0.36655265 0.22029859 -0.3517118 -0.47121185
0.44110912 0.36077812 0.0032011957 0.3007185 0.2535921 -0.15683335 0.09714362 0.37361848
0.0014460552 -0.40189356 -0.36326754 -0.19062467 -0.19527543 -0.40487307 -0.3326431 0.49917942
-0.06479405 -0.3698455 0.23849358 -0.4205195 -0.1685847 0.33663136 0.235108 -0.34307593
-0.36977527 0.13286947 0.5021013 -0.4757829 0.004898923 -0.42651504 -0.06119466 -0.47678766

bn1.weight f4 [128]
00000000: 1218 7b3f 9a2c 813f 0f3d 7f3f d583 7d3f
00000010: b643 823f aa4c 813f 7549 7d3f e4c8 7b3f
00000020: b748 7f3f 2674 7d3f 85b3 7e3f 46f0 803f
00000030: b220 813f 379c 803f ea91 813f 5cfc 823f
00000040: d4f4 7f3f 31b8 813f cfab 7e3f 3710 813f
00000050: b9e5 813f 7b2a 7f3f d5f9 7d3f d23c 7e3f
00000060: 7e62 7b3f a303 7b3f 52fb 7f3f fc61 7c3f
00000070: ca9a 813f 005f 7c3f 4692 803f dc49 7f3f
00000080: 6d57 813f f388 803f 1661 813f eaa6 7c3f
00000090: 5d4e 7e3f 5212 843f e7cb 7a3f b679 7e3f
000000a0: c7a7 803f 1eea 7a3f d623 823f 7931 7c3f
000000b0: eb05 7d3f e32a 7f3f f1d5 7b3f 1a00 7e3f
000000c0: f24a 803f 79ac 7c3f 584c 813f 84fb 7a3f
000000d0: a084 823f 6804 7e3f 647b 7d3f 66a2 7e3f
000000e0: d370 803f 8d33 813f 8037 7b3f ac80 7c3f
000000f0: 3641 813f 7853 813f 08d2 803f c4dc 7a3f
00000100: 510e 803f 1bce 813f 56c1 7c3f 0763 803f
00000110: 8fa6 813f 107b 823f 3c42 7c3f 8329 7d3f
00000120: b695 7d3f 99e3 7f3f 69a4 823f cf92 803f
00000130: 9efe 7c3f f78a 803f 6adf 803f 18cc 813f
00000140: 2e04 7f3f 773e 823f 00c5 823f d11f 7a3f
00000150: e816 7c3f 72ba 7c3f 2ab3 7a3f 96f1 7f3f
00000160: 4d43 823f 3a35 7b3f 98b1 7b3f b214 783f
00000170: 62fb 7c3f f548 803f 0fdf 793f d8f2 803f
00000180: 7e0f 803f 3554 7d3f 7d2e 7e3f 768e 7a3f
00000190: 5485 7f3f dbf8 7d3f 02ed 793f 5122 7f3f
000001a0: bd23 803f 0d18 813f 2836 813f cf12 7e3f
000001b0: a683 803f 7934 7d3f 37b7 803f e8ec 773f
000001c0: bcf4 823f 4fb3 7e3f aeb2 7c3f cc2c 7d3f
000001d0: 3a83 7f3f f385 803f 4278 7f3f 65f9 7e3f
000001e0: 8cef 7c3f b44f 803f 8c0b 7a3f 68d5 813f
000001f0: 65b6 7f3f 4928 7d3f f5e0 7d3f 4b0c 7f3f
0.98083603 1.0091736 0.99702543 0.99029285 1.0176914 1.0101521 0.9894021 0.9835341
0.9972033 0.99005353 0.99492675 1.0073326 1.0088103 1.0047673 1.0122654 1.0233264
0.99982953 1.0134336 0.9948091 1.0083073 1.0148231 0.99674195 0.9920934 0.99311554
0.9819716 0.98052424 0.9999286 0.9858701 1.0125363 0.9858246 1.0044639 0.99722075
1.0104805 1.0041794 1.0107753 0.9869219 0.9933832 1.0318091 0.9796738 0.99404466
1.0051202 0.98013484 1.0167186 0.9851299 0.98837155 0.99674815 0.98373324 0.99218905
1.0022871 0.9870067 1.0101423 0.9804003 1.0196724 0.99225473 0.99016404 0.9946655
1.0034431 1.0093857 0.9813156 0.9863384 1.0098026 1.0103598 1.0064096 0.9799311
1.0004369 1.0141023 0.9873251 1.0030221 1.0128955 1.0193806 0.98538566 0.98891467
0.99056566 0.9995666 1.0206424 1.0044802 0.98826015 1.0042409 1.006818 1.014041
0.9961575 1.0175313 1.021637 0.977048 0.9847245 0.9872199 0.9792963 0.99978006
1.0176789 0.9812809 0.9831786 0.9690658 0.9882108 1.0022265 0.97605985 1.007411
1.0004728 0.98956615 0.99289685 0.9787363 0.9981282 0.9920785 0.9762727 0.9966174
1.0010906 1.0085465 1.0094652 0.9924745 1.0040176 0.9890819 1.0055913 0.96845865
1.0230937 0.99492353 0.98710144 0.9889648 0.9980961 1.0040878 0.99792874 0.99599296
0.9880302 1.0024323 0.9767387 1.0143251 0.99887687 0.98889595 0.9917138 0.9962813

bn1.bias f4 [128]
00000000: cb72 ecbc 403a fa3a 0478 11bc d335 f0bc
00000010: 2109 3a3c fa7c 7a3c fbfb 57bc b48c 12bc
00000020: 8074 ca3a 2890 65ba a38a 8abc 3c89 fa3b
00000030: 9c49 4a3c 0592 a53c f50a a5bc 4bc8 c63c
00000040: c5a1 dfbb bfec 593a a524 903b e8da 773c
00000050: 352b b53c 4c2e 67bc e8d7 4bbc ed06 14bc
00000060: a453 77bc a70f 95bc 7ed3 ff3b 67b3 803c
00000070: 5303 3d39 0396 94bc 3c97 83b9 9f41 9dbb
00000080: a29d 59bc 6e86 0a3c a857 47bc 6c67 85bc
00000090: efa5 2abc 5878 223c 860e f6bb 0532 143a
000000a0: 3855 403c a737 c8bb 4b9b 8c3c beec 54bc
000000b0: da30 ecba 7bbc b3bb da06 603b 76c3 5dba
000000c0: 20fc 843c 0048 a3bb 4ead 97bb 06ab 96bc
000000d0: 7649 f23c 975c 44bb 505f 83bc d913 42bc
000000e0: e9e0 adbc 17ef 3bbc fa6b b0bc d891 43bc
000000f0: 88c6 253c 00c6 f1bc 747b 8d3c 042f 5cbc
00000100: cf66 563c 9d3d ac3c fc71 3cbc 4d62 aaba
00000110: c19b 133c 8ad5 503c 06a4 abbc 1391 96bc
00000120: bf19 35bc c902 423a b66e 013d 7458 f4bb
00000130: 67c4 53bc 69fe 293c ca36 64bb f58b 81bc
00000140: 0eda 87bb 73de 1dbc 3e33 983c 6a15 98bc
00000150: c6fb dcbb 62cb 9fbc 99c5 9dbc cf58 d7bb
00000160: 7dcc 8fbc 45f1 88bc 45b1 12bc faf2 fabc
00000170: 0757 e9ba bf77 39bb 2e05 96bc b0f5 543b
00000180: bf8a fa3b 4107 0436 5b30 a9bb 5d25 efbc
00000190: 48e2 cebc ea39 adbc 40ca 05bd 2260 9fbb
000001a0: 9a0f 12bb efa0 b5bc b211 a33b 3b7d e6bc
000001b0: 2919 23bc 2cee d5bc e828 7cbb 0bd7 d2bc
000001c0: 693b 19bb 5793 42bb 5437 3abb f8aa 3cbc
000001d0: bb28 993c c0da fc3b bf1a 703c 2e55 043c
000001e0: 62e2 b13b 1112 a83b 4da0 e1bc b95e acb9
000001f0: 24a4 65bc 63db 43bc 53d1 e2bc bb78 26bc
-0.028863331 0.0019090846 -0.008878712 -0.02932254 0.011354716 0.015288586 -0.013182635 -0.008944679
0.0015446097 -0.00087571377 -0.01691181 0.007645754 0.012346651 0.02021123 -0.020146826 0.024265429
-0.0068247044 0.0008313171 0.0043988996 0.015127875 0.02211533 -0.014110159 -0.012441613 -0.009034854
-0.015095625 -0.01819594 0.0078071943 0.015710546 0.00018025683 -0.018137937 -0.00025098945 -0.0047990824
-0.0132822115 0.008454902 -0.012166895 -0.016284667 -0.010415538 0.0099163875 -0.0075090555 0.00056532054
0.011739068 -0.00611015 0.017163893 -0.012995897 -0.001801993 -0.005485115 0.0034183771 -0.0008459607
0.016233504 -0.0049829483 -0.004628814 -0.018392097 0.029576045 -0.0029962414 -0.01603666 -0.011845552
-0.02122541 -0.011470578 -0.021535862 -0.011936627 0.010118134 -0.02951336 0.017270781 -0.013438944
0.013086035 0.021025473 -0.011501785 -0.0012999267 0.009009303 0.012746224 -0.020952236 -0.018379724
-0.011053502 0.0007400928 0.031599723 -0.0074568335 -0.012925244 0.0103755975 -0.0034822696 -0.015813807
-0.004145867 -0.009635556 0.018579122 -0.018564899 -0.006743881 -0.01950616 -0.019259261 -0.006571866
-0.017553562 -0.016716609 -0.008953397 -0.030633438 -0.0017802425 -0.0028300134 -0.018313017 0.0032495074
0.0076459344 1.9673755e-06 -0.005163235 -0.02919262 -0.025254384 -0.02114578 -0.032663584 -0.004863755
-0.0022287131 -0.022171466 0.0049764747 -0.028135886 -0.009954729 -0.026114546 -0.003847653 -0.025737306
-0.0023381358 -0.0029689872 -0.0028414326 -0.0115153715 0.01869618 0.0077165067 0.014654814 0.008076949
0.0054285983 0.005129107 -0.027542258 -0.0003287697 -0.014016185 -0.011954161 -0.027687704 -0.01016062

bn1.running_mean f4 [128]
00000000: d31b e2bd 48c9 01bf ee38 053f 13d1 0d3e
00000010: 8548 16be fd49 873e a232 15bb d7c2 053f
00000020: 2a81 423d fdec 003f 8cb8 693e 9cdf 06bf
00000030: e998 f33e 0e34 0a3e 1646 a4bd 00f2 023f
00000040: 677d 03be e69f e2be 4142 013f 5e3d f3bc
00000050: a9b0 813e 6871 8dbe 7fc6 e6be 4bc4 633e
00000060: d61a 063f 9f7b 66bd 9ba3 cc3e 00bc c63d
00000070: 0470 bf3e 3fd5 b8be 55af cabe 292c e5be
00000080: d31d 693d 3eea d53e 72e0 01bf 9a76 dfbe
00000090: 9338 da3e 6e59 803e 9b67 07bd 5eaf 39be
000000a0: cb2d d7be ea2c fe3e 366a db3e c9e3 173f
000000b0: 6fed a83c 477b 90be c704 e83e 5de4 353d
000000c0: feca 8fbe 6aa9 513d 6d3f e23e b3ab 823d
000000d0: 9451 c93c ba2e fbbe b73c fb3e 4105 0a3e
000000e0: ac05 913d 7b49 db3d 9196 b8be f835 e1be
000000f0: c192 673e 2d72 f33e 2a9b f5be 76c9 dd3e
00000100: 4761 f1be e423 f7be bdd2 f0be e1dc 27be
00000110: a2df 3cbe b065 87be 8be5 033f 9e85 d7be
00000120: cb4f b9be e069 0ebe 413a e83e 2984 143f
00000130: 2aa9 3c3d b150 ec3e 94b1 c23e 5e5c 45be
00000140: f37d d23d 4d45 b9be 9c46 6cbd a65c 5abe
00000150: cd99 4d3e e3ee 483e 6a54 8e3e 9842 12bf
00000160: f6d3 163f 6a76 58be 727b a7be 8616 993e
00000170: c6b7 c5be 3415 803e 4718 bdbe 3db7 04bf
00000180: d3f3 c73e e654 b33e 051e 28bc f147 ab3e
00000190: 19f6 893e 21b2 14be c8b6 ac3d d159 c93e
000001a0: 3bcd be3c ddb5 bdbe bcdd cfbe c79b 22be
000001b0: 9f78 3ebe 6701 bbbe 541b aabe fefa 053f
000001c0: 9f42 53bd 72b6 c6be 0d5e 703e 16db d5be
000001d0: 89a0 39be 8f02 983e 2fe4 523e d4ab aebe
000001e0: 4cec bfbe 8cd4 ee3d 8b48 043f 2023 e4be
000001f0: f5fc 1b3d 08c9 e9be f35a 9fbd 4611 fdbe
-0.11040463 -0.50697756 0.5203999 0.13849287 -0.14676102 0.26423636 -0.0022765775 0.52250427
0.04748646 0.50361615 0.22824305 -0.5268495 0.475776 0.1349642 -0.0802118 0.5115051
-0.12840806 -0.44262618 0.5049172 -0.029692348 0.25330094 -0.27625585 -0.45073316 0.22242849
0.523847 -0.056270238 0.3996857 0.09703827 0.3739015 -0.36100194 -0.39586893 -0.44760254
0.05691321 0.41780275 -0.507331 -0.43645173 0.42621288 0.2506823 -0.03305779 -0.18133304
-0.42027125 0.49643642 0.4285447 0.5933195 0.02062103 -0.28219053 0.45316145 0.044407237
-0.28084558 0.051186956 0.44189015 0.06380405 0.024575032 -0.49059087 0.4906976 0.13478567
0.0708116 0.10707375 -0.36052373 -0.43986487 0.22614576 0.47548047 -0.47969943 0.43317765
-0.4714453 -0.4826957 -0.4703578 -0.16392852 -0.18444684 -0.2644477 0.5152213 -0.4209413
-0.3619369 -0.13907576 0.45356944 0.5801416 0.046059765 0.46155313 0.38026106 -0.19273517
0.10277929 -0.36185685 -0.057684526 -0.21324405 0.20078202 0.19622378 0.27798778 -0.57132864
0.58917177 -0.21138921 -0.3271137 0.29899997 -0.3861677 0.25016177 -0.36932585 -0.518421
0.3905321 0.3502571 -0.010261063 0.33453324 0.2694557 -0.14521076 0.084333 0.39326337
0.02329122 -0.37052813 -0.40598857 -0.15879737 -0.18600701 -0.36524507 -0.33223975 0.5233611
-0.051577207 -0.3881107 0.23473378 -0.41768712 -0.18127646 0.29689452 0.20594858 -0.3411547
-0.37484968 0.11661634 0.5167319 -0.44558048 0.038083035 -0.45661187 -0.07781019 -0.4942724

bn1.running_var f4 [128]
00000000: bdc3 a03e 9fa2 bd3f 9a76 ac3e cb90 9c3f
00000010: 2f38 f43e d281 a93f 2bab 1e3e ba70 c03e
00000020: 1c63 e43d 1428 d53e 71be b43e b681 ab3d
00000030: a6c7 f33d 63ef 913f 1636 953d 2257 1d3e
00000040: 4ec8 893f 40a0 833e 1da0 b63e 5961 1b3e
00000050: 1136 333e 62bd d13d e7d2 713f 2874 fc3e
00000060: 05c6 603c 9dd2 c73e a38c 223f 61a0 683e
00000070: a8b5 c13e d2c0 4b3e 2404 623d d10f 6d3e
00000080: e229 e53d 05b6 343e dd11 bd3e af80 063e
00000090: 3fe2 223e 045f e03d 4d1c b83e b6b7 fb3d
000000a0: 0eb7 623f fdbe c43b 3df2 d63f aa2e 793e
000000b0: 2a6e 143e 28d1 313f 7c1c cf3d 7e62 583f
000000c0: 0fdd 3e3f 4dcd de3e 8bf3 713e 02e3 413e
000000d0: 365b e93e 48ef 8c3d d72d e13e b876 953e
000000e0: 26cc 213f b810 b53c 667d d43d 723c 543e
000000f0: a1d3 803e ff27 623f d499 473e 90d8 333e
00000100: 3abf 103e 1981 bd3e 4874 903c 675a 2e3e
00000110: 4584 503e ab34 413e 6d33 503e 8cec 463e
00000120: 14f1 573f f079 013e c84b 863d 2d43 fb3e
00000130: 92da 1a3e 8a85 603f 0275 123e 4670 c43d
00000140: b4b8 5e3e b588 e53e 0123 353d 5626 5e3e
00000150: 113d e73f f961 d23e bdf1 763e 982a cf3d
00000160: 59a4 ae3e a7a8 353f e521 6c3e e1d5 573d
00000170: abfd fc3d 632f e53e 3ee7 983e 14f7 663f
00000180: 4053 8a3f 1f35 133e 2fa9 e03d be95 153f
00000190: ebba 823e c739 913d 3fcc 283e 0ca7 0a3e
000001a0: ff8c 8b3e fb96 0b3f ac02 403f c636 c63e
000001b0: 4162 d73c 7ba1 253f 81ad c439 7593 b43e
000001c0: e32f 873d e6f4 d43d cabb 0d3e 7650 033e
000001d0: c4e4 163e 23ab 283f 707f 113f 2db3 373d
000001e0: c7dd 623c 316c 803e 6eda 543e 8c85 f93e
000001f0: fe10 003f 787c 9e3e df15 c13d 44e8 833e
0.31399336 1.4815253 0.33684236 1.2231687 0.47699115 1.3242743 0.15494983 0.37586004
0.11151716 0.4163214 0.35301545 0.0837435 0.11903314 1.140118 0.07285707 0.1536527
1.0764253 0.257082 0.35669032 0.15173854 0.17501093 0.102412 0.94462436 0.4930737
0.013719087 0.39027873 0.63495845 0.2271743 0.37833905 0.19897774 0.05517973 0.23150565
0.11189629 0.1764756 0.3692769 0.13135026 0.15906619 0.10955623 0.35959092 0.122908995
0.8856057 0.006004213 1.6792675 0.24334207 0.14495149 0.6945977 0.10112855 0.8452529
0.7455606 0.43516007 0.2362806 0.18934253 0.455774 0.06881577 0.43980286 0.29192138
0.6320213 0.022102699 0.1037548 0.20726183 0.2516146 0.8834228 0.19492275 0.17563081
0.14135447 0.37012556 0.017633572 0.17026673 0.20362957 0.18867747 0.20332117 0.19426173
0.8435223 0.12644172 0.06557423 0.4907469 0.1512244 0.87703764 0.14302447 0.09591727
0.21750146 0.44830862 0.044222835 0.21694311 1.8065511 0.41090372 0.24115653 0.10115546
0.34109762 0.7096047 0.23059805 0.052694205 0.12353071 0.44762716 0.29863924 0.9022076
1.0806656 0.14375733 0.10969769 0.58431613 0.25533232 0.07091098 0.16484164 0.13540286
0.2725601 0.5452725 0.75004077 0.38713664 0.026291968 0.64699525 0.00037513304 0.3526875
0.066009305 0.10398273 0.13841167 0.12823662 0.14735705 0.65886134 0.5683508 0.04484861
0.013846821 0.25082543 0.2078645 0.487347 0.5002593 0.30954337 0.09428 0.25763142

fc2.weight f4 [64, 128]
00000000: ed02 a1bc ba06 43bc e905 87bc 61d8 21bb
00000010: 3a46 0abd eb0d 443d 3fcc 0e3c ceb3 a2bb
00000020: b845 bb3d 3aef b73d efd9 793c ef44 a03d
00000030: 501f a73c 47af 5bbc ad1b 72bd 441b 893d
00000040: 39e1 cbbc b396 f5bc 943a 0a3d 009a ebbc
00000050: 6968 953d de7e 313d cb1a 8dbd 2f01 2e3d
00000060: 8d48 cfbc a8c2 a0bd a386 e4bb a680 5a3d
00000070: e6f7 13bd a37a 06ba 64d6 25bd 0780 13bc
00000080: 9189 b43a 153d d23c 8021 96bd 8e27 013d
00000090: 933a 63bc abc8 de3c 1551 a73b 095a 123d
000000a0: 6f85 a53d 58dd 943d 16af 97bd fad4 2a3d
000000b0: f4cc 23bd 6b32 863d bdc2 63bd 7b3f 4b3d
000000c0: b810 fdbc c859 95bd 8c8d b9bd 1974 acbd
000000d0: 840c 973c 1d9f ce3c e932 adbc 8969 06b9
000000e0: 1cda 59bc eebc dcbc ae35 813d 64d1 96bd
000000f0: d8eb b63d 774d 5e3d b5bb 6d3d 1f22 82bd
00000100: 87cb 26bd 0d79 41bd 4b1d 4c3d 1606 bf3c
00000110: 1e20 08bc 1b13 6dbc 1922 95bc 757b acbd
00000120: 63d8 31bd 80cf 713b d262 853c f8c2 d2bc
00000130: c383 a2bd c0a5 f63c ebd6 423d 5196 15bd
00000140: 6565 353d 0c39 afbd 7e23 0b3d 2b85 aa3b
00000150: be4b d63c 8307 5bbd 4442 b43c 9d78 063d
00000160: 2665 5b3c f4c5 113d ee34 433d d30c bfbc
00000170: 361a 4b3d f2bb 913d fad9 03bd 880c 593d
00000180: 9f39 38bd 6746 a7bd 4a25 913d ed13 1b3d
00000190: 5ae8 88bd d797 3b3c 324c abbd 3f3f 2e3c
000001a0: 7746 55bd c8df 33bc c0a2 5c3d 4f4f 3abc
000001b0: 6587 77bd d7e7 083c 8ea1 3c3d 4c88 32bc
000001c0: c559 1fbd a87c 26bd bef0 82bd d4ac 87bd
000001d0: b6be 473d 83ed f73c 0739 733c b9be 823d
000001e0: f828 fe3b cea1 f5bb 20e5 d7bc 0748 42bd
000001f0: e8da 823d b830 e53c ace5 09bc 9509 293d
00000200: 3e85 d1bc fb53 b6bd 8f46 0f3d 5eb1 1fbc
00000210: 44d4 203d 8a5f 863d b054 333c 1639 1fbd
00000220: a5a4 72bd d4d3 22bd dd85 5e3d 2295 543b
00000230: 6413 09bd 5d86 053d 9046 82bc 6961 de3c
00000240: 05ad 4dbd 7209 67bd 8221 843c e7bc 46bd
00000250: 7db0 013d 34d6 a63b 6b55 11bd 6fc9 b43d
00000260: 23f8 bb3c a881 823d 4923 93bc 37ba 533c
00000270: e09e 323d 057e 493d 373f 473d d63d 1bbd
00000280: c62e b8bc 925d 2c3d 6b16 95bd 5fc9 86bd
00000290: 71a1 1cbd 1f01 a6bc d134 903d 16df 76bd
000002a0: a481 39bd 4111 acbd 57ea a03d 95ba 8d3d
000002b0: 6907 893d 7176 94bd fbc3 3b3d ec66 e83c
000002c0: d5fd 7c3c bdcb f83c b812 57bb ebc8 ba3d
000002d0: 50ee 843c 1561 093d 71f3 dfbc 4e82 12bc
000002e0: ab24 793c 5635 7abc c626 44bd 3981 d03c
000002f0: c2ff cd3d 634f b1bd a89e 83bb f74e b8bc
00000300: 35fb 0c3d 1e46 45bd 29e2 8bbd e959 2b3b
00000310: e07e 55bc 9633 82bd 97f6 c8bc ef0b 32bc
00000320: 59b2 e2bb e271 05bd 179b dd3c be45 433d
00000330: eaed 923d 7c1c 2d3d 1587 b6bc 04ab 2c3d
00000340: a62c 61bd 524c 683d c7d4 1f3c e357 8f3b
00000350: a1c2 243b fba5 6cbd 59da 15bd 8288 b6bc
00000360: b474 a43b bfc8 b1bb 020c 45bc a1c4 14bd
00000370: c257 dd3c 2f18 85bd 525c 8d3d 34cb ca3d
00000380: 0f46 373d c867 cc3c 27c1 a8bd f0ba d63c
00000390: f5c0 b5bd 62c3 76bc e9db 9dbd bb04 96bd
000003a0: 2de0 c53c bcd6 8d3d fdcb 8c3c ffe5 7cbd
000003b0: 0dd9 f4bc 2e21 eabc 8deb 6e3c a407 5fbd
000003c0: b0cb c6bd 1c7d 643c c808 3e3d 7a1e 883c
000003d0: d3e0 77bd e852 363d ee52 b93d 5872 823d
000003e0: 3fe6 453d 4120 923d 3baa e03c d386 b0bd
000003f0: 3fa5 33bd 57bb 353b 90fd fa3c 0a68 a93d
-0.019654715 -0.011903459 -0.01648231 -0.0024695622 -0.03375838 0.047864836 0.008715688 -0.004965282
0.09144157 0.08981176 0.015249713 0.07825648 0.020400673 -0.013408489 -0.059108425 0.06694654
-0.024887668 -0.029979086 0.03374727 -0.028759956 0.07295305 0.04333388 -0.06889876 0.042481598
-0.02530315 -0.07849628 -0.0069740578 0.053345345 -0.036125086 -0.00051299686 -0.040487662 -0.009002692
0.0013773908 0.025663892 -0.07330608 0.031531863 -0.013868946 0.027195295 0.0051061013 0.035730395
0.08082091 0.072687805 -0.07406442 0.041707017 -0.03999038 0.06552585 -0.05560564 0.049621087
-0.030891761 -0.07292515 -0.09060201 -0.08420581 0.018438585 0.025222355 -0.02114244 -0.00012818551
-0.01329663 -0.026945557 0.06309067 -0.07364157 0.089317024 0.054273095 0.05804034 -0.06354164
-0.040721443 -0.047234584 0.049832623 0.023318332 -0.008308439 -0.014469887 -0.018204736 -0.08421985
-0.043419253 0.0036897361 0.016282473 -0.025727734 -0.07935288 0.030108333 0.047568243 -0.036520306
0.04428615 -0.08555803 0.033969395 0.005203863 0.026159164 -0.05347396 0.022004254 0.03282987
0.013390815 0.035589173 0.0476579 -0.023321545 0.049585544 0.07115926 -0.0321903 0.052990466
-0.044976827 -0.08167725 0.070871904 0.0378608 -0.066849425 0.011449776 -0.083641425 0.010635196
-0.052069154 -0.010978647 0.053866148 -0.011371448 -0.060431857 0.008356056 0.046052508 -0.0108967535
-0.03890397 -0.040646225 -0.06393574 -0.06624761 0.04876586 0.030264622 0.014845139 0.06384034
0.0077563487 -0.0074960953 -0.026354373 -0.047431972 0.06389409 0.027977332 -0.008416574 0.041268904
-0.02557623 -0.08902737 0.0349794 -0.0097468775 0.039264932 0.065611914 0.010945484 -0.0388728
-0.05923905 -0.039752796 0.05432688 0.0032437523 -0.033465758 0.032598842 -0.015902787 0.027146058
-0.050213832 -0.056405492 0.016129259 -0.048519995 0.031662453 0.005091453 -0.03548185 0.08827483
0.02294547 0.06372386 -0.017961161 0.012922815 0.043608546 0.049192447 0.04864427 -0.03790077
-0.02248324 0.042081423 -0.072796665 -0.06581377 -0.0382399 -0.020264206 0.07041324 -0.060271345
-0.04528965 -0.084017284 0.07857197 0.06920353 0.066908665 -0.072491534 0.0458412 0.02836939
0.015441378 0.030370587 -0.0032817554 0.09120353 0.016226918 0.03353985 -0.027337762 -0.0089422
0.015206496 -0.015271505 -0.04788854 0.025452243 0.100585476 -0.0865772 -0.004016716 -0.02249859
0.034419257 -0.048162572 -0.06830246 0.002614612 -0.013030738 -0.063574955 -0.024531646 -0.010867103
-0.0069182334 -0.03257931 0.027051492 0.047673933 0.07174285 0.042263493 -0.022281209 0.04215528
-0.05497422 0.05671341 0.00975532 0.0043744906 0.0025140422 -0.05777548 -0.036585186 -0.022281889
0.005018795 -0.005425542 -0.012026789 -0.036320332 0.027019385 -0.06498753 0.06902374 0.09902039
0.044744547 0.02495183 -0.08239966 0.026212186 -0.08874694 -0.015061231 -0.0770796 -0.07325121
0.024154747 0.06925723 0.017187113 -0.06174278 -0.029888654 -0.028580274 0.014582527 -0.054450646
-0.09706819 0.013945844 0.046395093 0.016616095 -0.060517143 0.04451266 0.09049021 0.063694656
0.048315283 0.07135058 0.027424922 -0.08619466 -0.043858763 0.0027730071 0.030638486 0.08271797

fc2.bias f4 [64]
00000000: 84a5 8ebd a33c aabc 17f6 43bb dc32 1d3d
00000010: 2d0a 07bd 0499 853d aadc 8a3d 7ad5 9c3a
00000020: 95c6 b2bd 3fb1 3dbd c16a 8e3d 8611 76bd
00000030: c1b8 993d d415 6dbd 58ab 0bbd a862 d3bc
00000040: 20c2 033c afc0 5b3d bf9d 91bd 1086 8cbc
00000050: ddef 3dbd 40c0 6abb 2bc3 0ebd e5e1 9e3d
00000060: 4dde 5dbc 15d4 11bc 3163 8fbc 750d 8a3d
00000070: 97e8 60bc 63c6 62bd 0b80 17bd f291 ba3d
00000080: 6f97 3dbd a0da 33bb 066f 44bd 88a4 22bd
00000090: ebc4 52bd 0763 af3d 4460 2bbd ede3 13bd
000000a0: 91c7 acbd e439 223d 3bf3 9cbd 3c4b 9fbd
000000b0: 8de5 10bd 7d30 23bd 6388 9e3d b743 463c
000000c0: e98b 4b3c 0856 933c 4662 6f3d 024b 7dbd
000000d0: d569 433d b04d f23c 54e2 95bd 63d9 233c
000000e0: ff7a aebb 65b6 983d e2c7 a13d 5106 a13d
000000f0: e829 bcba 7e70 40bd c2e4 9c3d 5a51 ffbc
-0.06965163 -0.020780867 -0.002990132 0.03837858 -0.03296869 0.06523326 0.067803696 0.0011965476
-0.08729283 -0.046311613 0.069539554 -0.060075305 0.07505942 -0.057882145 -0.034098953 -0.025803879
0.0080418885 0.053650554 -0.07110166 -0.01715377 -0.04637133 -0.0035820156 -0.034854095 0.0775793
-0.01354177 -0.008900662 -0.017503353 0.06740848 -0.013727329 -0.055364978 -0.036987346 0.09109868
-0.046286996 -0.0027443543 -0.047957443 -0.03970769 -0.051457327 0.0856381 -0.041839853 -0.03610604
-0.08436502 0.03960599 -0.0766358 -0.07778022 -0.035375167 -0.039841164 0.077408575 0.012101105
0.012423494 0.017985359 0.05844333 -0.06183911 0.04770835 0.02957806 -0.07318559 0.0100005595
-0.005324721 0.07456664 0.07899453 0.07862533 -0.0014355751 -0.04698228 0.076608196 -0.031166721

bn2.weight f4 [64]
00000000: 716f 7d3f 8b35 7e3f dacd 7e3f 839b 823f
00000010: 6654 833f 54b5 813f d9f8 823f 6d5c 773f
00000020: 5c1f 783f 8df5 823f 3680 7c3f 55b8 7d3f
00000030: eb82 803f 0e13 803f bc0e 813f e71a 7f3f
00000040: 2a52 813f 54c8 783f 2a5a 793f aa6e 7f3f
00000050: d9e3 803f bede 7e3f b4fa 7e3f 5712 813f
00000060: 6b18 7b3f 8ece 7a3f fce7 803f 5c56 803f
00000070: b2f5 813f 5a69 7c3f 0ca8 823f 2abe 803f
00000080: ce57 7f3f df5b 7f3f 3854 7d3f 3b33 7e3f
00000090: b2dc 7c3f a1d7 783f d3e0 803f 297d 7e3f
000000a0: 2149 7f3f d544 823f 056d 823f bb29 7f3f
000000b0: 33e0 7f3f b297 7f3f d587 783f d511 7e3f
000000c0: ed4a 813f a128 813f f809 823f eede 7b3f
000000d0: c11d 7e3f 6215 7c3f 1dbf 7d3f 906c 803f
000000e0: e067 7a3f 9922 7a3f 0c72 823f 5730 7a3f
000000f0: f5a7 7b3f 9187 813f 7aaa 7d3f 7f62 7d3f
0.9899817 0.9930045 0.99532855 1.0203708 1.0260131 1.0133462 1.0232192 0.96625406
0.9692285 1.0231186 0.98633134 0.99109393 1.0039953 1.0005815 1.0082622 0.99650425
1.01032 0.97180676 0.97403204 0.99778235 1.0069534 0.9955863 0.9960129 1.0083722
0.98084134 0.9797143 1.0070796 1.0026355 1.0153105 0.98598254 1.0207534 1.0058033
0.99743354 0.9974956 0.9895663 0.9929692 0.98774254 0.97204024 1.0068611 0.9940973
0.9972096 1.0177256 1.018952 0.9967305 0.99951476 0.99840844 0.97082263 0.9924596
1.010099 1.0090524 1.0159292 0.9838704 0.9926415 0.9847013 0.9911974 1.0033131
0.9781475 0.9770904 1.0191054 0.9773001 0.9830316 1.0119497 0.9908825 0.9897842

bn2.bias f4 [64]
00000000: 7fcf 05bc e1ed 58bc 38bc 6dbc 9a13 f83c
00000010: e79a 91bb 65b1 d83b e055 133d 9f39 e1bc
00000020: 08c7 09bd 88e2 2d3c e2c8 4ebc 1e61 063c
00000030: a579 a23c c2ba 80bc 0de6 783c b387 59bd
00000040: d67a e3b9 7030 c9bc a438 4fbd 1376 1dbc
00000050: 48bd 16bc ffc6 75bb 6b66 533b 0836 253c
00000060: 6418 3fbc f2c3 5cbc 4578 96bb 061d cb3b
00000070: b556 aabc 42ec d6ba e760 81bb a1ad 85bb
00000080: d632 d139 da6d cfbb 17cb 92bc 1a53 65bc
00000090: 2c84 10bb 87ca 10bd 07b4 10bc a78d 4b3c
000000a0: 3caf e2ba 973c bc3c 8385 fc3c 5c3c b1bb
000000b0: 6620 7fbc 4531 223c 4961 98bc 85a8 3cbc
000000c0: 8fd2 533c 56e5 5b3c fd3e 923c 6387 21bd
000000d0: e6b4 b6bb a8de 61bc 872e 88bb cb7e 8ebb
000000e0: c43d d1bb b817 adbc de7e 903c c548 71bd
000000f0: 2ce4 d4bb 0c17 9abc f5c3 f3bc 116f 04bc
-0.008167147 -0.0132403085 -0.014510207 0.030282784 -0.0044435146 0.006612944 0.03597057 -0.027493296
-0.033637077 0.010613091 -0.012621136 0.0082018655 0.019833395 -0.015714053 0.015191567 -0.05310793
-0.00043388334 -0.02455923 -0.050591126 -0.009610671 -0.009200402 -0.0037502644 0.003225709 0.010083683
-0.01166353 -0.013474451 -0.004591974 0.006198528 -0.020793298 -0.0016397315 -0.0039483192 -0.004079536
0.00039901462 -0.006330234 -0.017919106 -0.013996864 -0.0022051437 -0.035349395 -0.008831984 0.012423909
-0.0017294656 0.02297811 0.030825382 -0.0054088067 -0.015571689 0.009899442 -0.018601077 -0.011514788
0.012928619 0.013421377 0.0178523 -0.039435755 -0.005575764 -0.013785996 -0.004155937 -0.004348611
-0.006385537 -0.021129474 0.01763862 -0.05890729 -0.006496927 -0.018809818 -0.029756526 -0.008083121

bn2.running_mean f4 [64]
00000000: f140 8ebd 2fb8 3c3c c837 303f f3da 273d
00000010: b9c9 b73e 265d 9fbc 376c cb3e 65e1 bcbe
00000020: f72b 13bf 375c 303e 0315 3fbe 93ae be3c
00000030: 2e07 3fbe d951 853e 528c 0bbe 2843 3a3f
00000040: 27cf 1f3e 4bfa 65be 7dea c63e 4110 a1be
00000050: 6742 2abe 1ed7 7d3c 084b 89bd ef45 3a3d
00000060: 1327 96be 030e 2dbf a132 173e 242a b5bd
00000070: 79dd 0f3f 2504 043e d223 293f 891b 5f3e
00000080: a13d dd3d af90 34be b5e5 6d3e 6d73 703e
00000090: d564 c33e 2b83 f3bd 220d 9b3e 0cf7 c8be
000000a0: c656 113f ce79 c13d 0304 ab3e 4719 3a3d
000000b0: df01 413e fa1c 3bbb 30dd a63d 5fc9 0f3f
000000c0: 61f9 8ebe 2327 0f3e a40d 8a3e 2ace 54be
000000d0: 190e 7abe 55b7 9e3e 1821 e93d a63d ca3e
000000e0: b493 cebe 2005 a03e c843 943d c19b 983e
000000f0: 20a2 13be 7587 1f3f ca39 283f ff6a dfbd
-0.0694598 0.011518522 0.68835115 0.04098029 0.3589609 -0.019453596 0.39731 -0.36890712
-0.5748896 0.17222677 -0.18660359 0.023276603 -0.18655083 0.26039007 -0.13627747 0.7275872
0.15606366 -0.2245876 0.38850775 -0.31457713 -0.16626893 0.015493182 -0.06703764 0.04547685
-0.29326686 -0.67599505 0.14765407 -0.08845928 0.56197315 0.12892206 0.6607028 0.21787848
0.108027704 -0.17633317 0.23232158 0.23481531 0.38162866 -0.11890253 0.30283457 -0.39250982
0.5677303 0.094470605 0.33401498 0.045434263 0.1884837 -0.0028551207 0.08147657 0.5616664
-0.27924636 0.13979773 0.26963532 -0.2078177 -0.2441944 0.30999246 0.11383265 0.3950016
-0.40347064 0.3125391 0.07239491 0.2980633 -0.14417315 0.62316066 0.6571318 -0.1090908

bn2.running_var f4 [64]
00000000: d736 453e b81d 6b3f 6c28 763e 3796 3c3f
00000010: a3d8 153f 94a9 f73e bca5 463f a6c2 873e
00000020: 3c47 c43e cf8e 7a3e 866b e83e 6596 8c3e
00000030: 0330 4f3f 4332 b03e 8ee9 563f 3083 973e
00000040: 5bf8 c73e 5e17 903f 16a8 433e e1cd 3e3e
00000050: 4231 e53e 0e6b 093f db14 223f 92c1 b83e
00000060: af4f e03e 8568 cd3e c91c b03e ac6c 293f
00000070: 0046 d83e ed46 023f 237a 993e f1aa 193f
00000080: 9383 1d3f 9713 293e 307d 1d3f e485 ae3e
00000090: 7f51 ab3e 4f52 313f fd7d 463f 5186 493f
000000a0: 0082 e23e a524 833e 04c4 e23e 73a0 a73e
000000b0: f1a6 be3e 34d3 fe3e aab5 163f c0d2 a73e
000000c0: e1dd 9c3e c821 953e 8885 393f d7a5 e33e
000000d0: 625b ef3e 4e76 ee3e 1cee b53e 6c5c bc3e
000000e0: d8ed 333e 0d65 383f 182a 103f 6355 db3e
000000f0: 7e99 033f 0c35 b53e 8829 c23e 51ef 893e
0.19259201 0.9184222 0.24038857 0.7366671 0.58533686 0.48371565 0.7759664 0.26515692
0.38335598 0.2446854 0.45394534 0.27458492 0.80932635 0.34413347 0.83950126 0.29592276
0.39056668 1.1257131 0.19107088 0.18633224 0.44764143 0.5367898 0.6331307 0.36085182
0.43810794 0.40118805 0.3439696 0.66181445 0.42240906 0.50889474 0.29975995 0.6002646
0.6152889 0.16511379 0.61519146 0.34086525 0.33460614 0.6926622 0.7753599 0.78720576
0.44239807 0.25613895 0.44290173 0.327396 0.3723674 0.4977051 0.5887095 0.32777977
0.3063803 0.29127336 0.7246938 0.44462463 0.46749407 0.46574634 0.35533226 0.36789262
0.17571199 0.7202919 0.5631423 0.42838582 0.51406085 0.35392034 0.3792231 0.26940396

fc3.weight f4 [64, 64]
00000000: 7bae 213c 7eb2 c53d a7d0 80bc 2a75 ec3d
00000010: c0d2 d53d 9f18 bcbd 18f7 7ebd c2a5 bf3d
00000020: 23b1 2b3c 0491 c13d 2bfd e8bd edfe 983d
00000030: b343 6ebd e924 0fba d83b e53d 9a86 05be
00000040: 9109 06bd c3c3 8438 f4b3 f0bd 9b6a dcbd
00000050: 756f 2a3d d89e 553c b9f1 c43b 7d19 73bd
00000060: 319f 5fbd e9aa a0bd 71c1 c0bc 2a4c a43c
00000070: f8cd 07be 7e2b 6b3d 31f1 10be a3ef 76bb
00000080: 2c70 adbc ca7c 98bd 6292 79bb 52fb 70bd
00000090: 9a7a 82bd 90c8 793c 9f54 cf3d 672b 92bd
000000a0: 0b2b 753d 2fbf 3a3d 095b b63d fcd9 6e3c
000000b0: eec6 91bd 6f22 13bd dffd 18be 39bb 113d
000000c0: afa6 e8ba 4a14 073e 6ae5 173d e424 01be
000000d0: f5de a3bd ebea 9e3d f91e 443d 6730 1cbd
000000e0: b95d 3cbd 2bfc 89bd 0a36 11bc f75f b6bd
000000f0: ea9a a03d 853d 29be 63fc 403c 11aa 723d
00000100: 66eb 92bd 4519 2b3d 48bc 23bd 351b 6a3b
00000110: bceb 8ebd b39a 803d eeb4 833d 87da cebd
00000120: 6ab2 72bd eef8 1b3e 852a ba3d 9c96 a9bd
00000130: 7159 2d3d a28d c93c 4f28 893d 31f6 933d
00000140: 54bc 063e ed6d a43d 3e4d 943b 3d0f 62bd
00000150: 96ba e2bc 61c3 a73c 5430 953d 1f92 a1bc
00000160: dd73 65bc 6cfd 8abd 7000 443d 64de b8bd
00000170: e9fc b1bd d937 343c 46ef 59bd 2e49 d33d
00000180: aeda 03bd 21da cabd 9cc9 b9bc bf59 05bd
00000190: 21ea afbd d761 7bbd 1875 1dbd a2f8 02be
000001a0: e20a 9b3d 1402 47bd 17d5 253c acf1 ab3c
000001b0: d94a 263d d54c 49bb 5a5c 7cbd 0e24 503d
000001c0: dfdf 253d 4fac aabd d452 783d f584 52bd
000001d0: 6376 be3d 8533 ca3d 843d b93d 079b 983d
000001e0: 9538 dbbd a4b6 9bbd 1d75 8ebd 069f 233d
000001f0: 180e e5bd a3e9 463a 228b dc3d 786c e53d
00000200: 6f75 463d 9a70 12bc 24b6 863d 8da7 113d
00000210: 18fe 7ebd 8df8 7c3d d457 483d 6693 2dbc
00000220: 34df 6abd 86ec cdbd 28b9 17bc 8f46 94bd
00000230: 6bdf 573d 5d46 e9bd 7638 dd3d 17e5 26bd
00000240: 0dab 073e 5b49 cf3c d1a0 a03c bc29 e13c
00000250: 901d 023d 2712 a23d 1718 a83d 8550 2abc
00000260: 65c4 81bd b9bb 09be 3701 a83d 4dc0 bb39
00000270: 346c 6dbd fa0f bcbd 55f5 c63d 5780 da3d
00000280: 27cf 3abd eb98 313d 741e 2f3d dff8 87bd
00000290: 0f73 08bd 01bf 96bd b90d 4cbd eb07 87bc
000002a0: bcd3 d63d 54aa 46bd a226 c5bd 42e2 bd3d
000002b0: c62c 54bd cf3e c0bd 0a39 f63d 48dd d0bd
000002c0: c004 ebbc 188b a43d 6ff6 bebd 1314 ef3d
000002d0: 5e77 87bd e01a 9bbd c375 d63d 4cbd c83d
000002e0: fa8e bb3c 3f7b 55bd e06c f6bb ed76 203d
000002f0: ce29 14bd 2233 cbbd 9def 5dbd dd54 843c
00000300: 8822 e33d baaf a3bd 35d1 96bd 3c66 d33d
00000310: 85c8 9fbd 0af0 babd 769f 853d a844 4cbd
00000320: 4cdc 893d 3aa1 353b 8a92 a43d f6fb ef3d
00000330: c0b2 753d 342c 90bb 14db 8e3d c079 72bc
00000340: 84c4 363c 881f a53d ad96 c1bd 9829 06be
00000350: a9c7 a3bd b840 a4bd e7b3 fa3d e9a0 d6bd
00000360: 7ee9 c43d 5a43 10be 331c c63d 0240 693d
00000370: a8fa f93b 2315 0a3d 388b b33d 8494 07be
00000380: 4587 803d 3922 00bd 5566 5a3d cf5a 1cbd
00000390: 261f 6b3d 9470 abbd bd37 a33d 4aaa f7bd
000003a0: fe90 49bd 3e24 f23d f077 bfbc a13c 12bd
000003b0: 8d1b 02be 35af e6bd cc25 603d 4e11 9c3b
000003c0: b45f 75bc eb2b b93d abc8 bfbd 0d00 0fbe
000003d0: cdfc 3abd 7272 21bd 04a0 273d 633a 353d
000003e0: cb53 543d f518 c63c 8ad1 90bd 9247 a6bd
000003f0: 1a04 ab3d 73b1 b3bd f1d0 6ebd c2f5 b23d
0.00986826 0.09653185 -0.015724493 0.11545785 0.10440588 -0.091843836 -0.062247366 0.09357788
0.010479244 0.09451488 -0.11376413 0.07470498 -0.05817003 -0.0005460517 0.11193055 -0.13039628
-0.032723967 6.330714e-05 -0.11753073 -0.10762521 0.0416102 0.01303836 0.006010261 -0.05935048
-0.054595176 -0.078450985 -0.02352974 0.02005585 -0.13262165 0.057414524 -0.14154507 -0.0037679456
-0.021171652 -0.074456766 -0.0038081636 -0.058833428 -0.06371041 0.015245572 0.10123562 -0.071371846
0.059855502 0.045592483 0.08904082 0.014578339 -0.07118021 -0.03592151 -0.14940594 0.03557894
-0.0017749871 0.13191333 0.03708402 -0.12611729 -0.0800151 0.07759651 0.0478811 -0.038132098
-0.04598782 -0.0673755 -0.008862982 -0.089050226 0.078420475 -0.16527374 0.011778924 0.05924422
-0.07173805 0.041772146 -0.03997448 0.0035721783 -0.069785565 0.062795065 0.06430994 -0.101002745
-0.05925218 0.15231678 0.09090141 -0.082806796 0.042321626 0.024603669 0.066971414 0.07224692
0.13157779 0.08028779 0.0045258095 -0.055190314 -0.027676862 0.020478906 0.072846085 -0.019722996
-0.014004675 -0.06786618 0.04785198 -0.09026793 -0.08690817 0.010999643 -0.053206705 0.10316692
-0.03219097 -0.09904886 -0.022679143 -0.03255629 -0.085895784 -0.061372604 -0.038441747 -0.12790158
0.07570435 -0.048585966 0.010121605 0.020989262 0.040598724 -0.0030715961 -0.06161151 0.050815634
0.040496703 -0.083336465 0.060625866 -0.05139633 0.09299924 0.09873108 0.09044936 0.07451444
-0.107041515 -0.07603195 -0.06955931 0.03994658 -0.11184329 0.0007587915 0.10768725 0.112023294
0.048451837 -0.008937979 0.06577709 0.03556018 -0.06225404 0.061760474 0.048911884 -0.010594225
-0.05734177 -0.10054879 -0.009260453 -0.072400205 0.052703302 -0.11390374 0.10801785 -0.04074582
0.13248844 0.025303533 0.019607933 0.02748572 0.031766474 0.079136185 0.0820772 -0.010395174
-0.063362874 -0.13450517 0.08203357 0.00035810695 -0.05796452 -0.09182735 0.09714762 0.1066901
-0.045607712 0.043358725 0.04275365 -0.06639265 -0.033312853 -0.0736065 -0.049817774 -0.016483268
0.10489604 -0.04850228 -0.09626509 0.09271671 -0.05180051 -0.0938698 0.12022598 -0.10198456
-0.028688788 0.080343425 -0.09324347 0.11673751 -0.06614564 -0.075734854 0.1047168 0.098017305
0.022895325 -0.05211949 -0.007520303 0.039175916 -0.03617268 -0.09921862 -0.05418359 0.016153747
0.11090571 -0.079925016 -0.07364122 0.10322234 -0.07801918 -0.09127815 0.065245554 -0.049870163
0.067314714 0.0027714507 0.080357626 0.117179796 0.059984922 -0.0043998007 0.069753796 -0.014799535
0.011155251 0.08062655 -0.09452567 -0.13101804 -0.079970665 -0.080201566 0.12241345 -0.1047991
0.096148476 -0.14088193 0.09673347 0.05694581 0.0076287575 0.033711564 0.08766788 -0.13240248
0.062758006 -0.031282637 0.053320248 -0.03817254 0.057402752 -0.08371082 0.079696156 -0.12093027
-0.04921054 0.11823319 -0.02337262 -0.03570235 -0.12705822 -0.11263887 0.054723546 0.004762805
-0.014976431 0.0904158 -0.09364446 -0.13964863 -0.045651246 -0.039415784 0.040924087 0.044245135
0.051837724 0.024181822 -0.070712164 -0.0811912 0.08350392 -0.0877408 -0.05830473 0.08738281

fc3.bias f4 [64]
00000000: 9cd9 3fbd 6ed3 33bd 59cb d9bd d123 8d3d
00000010: e5cf b03d 745a 863d 3212 c23c 8442 273c
00000020: 2322 78bd aff8 92bc 7475 313d a8c9 8f3c
00000030: dfb7 b63d 2b16 b5bc b81d 723d 0156 3c3d
00000040: 5163 cdbd e6c9 aebc d0cb 87bd b603 033d
00000050: 1b61 dabd fb69 abbd 3ae8 8dbd a961 a63c
00000060: 748a 5abd 38c0 debd 1be8 d1bd 6b35 7a3d
00000070: f9ee c53d aa73 bdbd 4096 f33d 03c4 96bd
00000080: 2a5e b53d 1835 ba3d 5a15 09bd 30b1 82ba
00000090: 89b6 91bc ba22 d3bd d72f d43d 8702 65bc
000000a0: 9c71 f7bd f93b 62bc 1f0d f4bd cdfc e0bc
000000b0: 0195 bebc 21d4 653d ba21 c4bc 65aa b93c
000000c0: d033 cabd 517a cabb 6104 e63d 3764 3abc
000000d0: c08d ef3c 466a 97bd 06e3 593d f6d5 be3d
000000e0: b6eb 083d 1062 bfbd 00b5 363c c69f 893c
000000f0: d5bd cebc 6b57 09bd b9f3 493d 8158 cd3c
-0.046838388 -0.043902807 -0.106344886 0.06891597 0.08633403 0.06560221 0.023690317 0.01020873
-0.06057943 -0.017940847 0.043324903 0.017552212 0.089217894 -0.022105297 0.059110373 0.045980457
-0.10028709 -0.021336507 -0.06630671 0.03198596 -0.10663053 -0.083698235 -0.06929059 0.02031024
-0.053354695 -0.108765066 -0.10249349 0.0610861 0.09664721 -0.09250577 0.11893892 -0.07361605
0.08855851 0.09092158 -0.033467628 -0.0009971019 -0.017787235 -0.10309358 0.10360687 -0.013977653
-0.12082216 -0.013808244 -0.11916565 -0.027464295 -0.02326441 0.056110505 -0.023941863 0.022664258
-0.09873164 -0.006179132 0.11231304 -0.011376432 0.029242396 -0.07393317 0.053195022 0.093181536
0.033427916 -0.09344876 0.011151552 0.016799819 -0.025237003 -0.033530634 0.049304698 0.025066616

bn3.weight f4 [64]
00000000: 721d 7a3f 8aed 7c3f 8fab 7c3f dbd5 763f
00000010: 4769 763f dcf2 7b3f 1859 7d3f 8ef0 803f
00000020: ef2c 7d3f fc69 813f 38a7 783f db40 7c3f
00000030: 026a 7b3f a803 783f 7c2d 7c3f 8612 753f
00000040: e8e2 803f cd8d 803f dbc3 793f cda1 7a3f
00000050: 7d8b 7d3f 2885 813f bb58 783f 2e3c 823f
00000060: 7fca 793f eb20 803f 9e38 823f e2b2 803f
00000070: 95a6 7b3f 40f3 7b3f 45a9 7b3f d06c 813f
00000080: c941 7f3f 2247 7c3f 012d 7a3f 89d7 7d3f
00000090: be81 793f 3775 7b3f 2123 823f d3f0 7b3f
000000a0: b9e0 823f a621 7b3f 862e 753f af49 7c3f
000000b0: 7fcb 753f fecb 783f 1ca7 7d3f 86a1 7d3f
000000c0: 4edd 7f3f f950 823f a8da 793f 1876 7a3f
000000d0: 7694 753f 5027 7a3f 487f 7b3f 691f 7b3f
000000e0: fae5 803f a557 803f 7165 7b3f 2f4d 753f
000000f0: e88a 803f e1e4 7c3f 5bee 7c3f 051c 7d3f
0.9770118 0.98799956 0.9869928 0.9642007 0.9625439 0.9841745 0.9896407 1.0073411
0.9889669 1.0110469 0.97130156 0.9853646 0.9820863 0.9688058 0.98506904 0.9573139
1.0069246 1.0043274 0.97564477 0.9790314 0.9904097 1.0118761 0.9701039 1.0174615
0.9757461 1.0010046 1.0173528 1.0054591 0.9830106 0.98418045 0.9830516 1.0111332
0.99709755 0.9854604 0.9772492 0.99157006 0.97463596 0.9822573 1.016697 0.98414344
1.022483 0.9809822 0.95774114 0.9854993 0.96013635 0.9718627 0.99083114 0.9907459
0.9994706 1.0180961 0.9759927 0.97836447 0.9592966 0.97716236 0.9824109 0.98094803
1.0070183 1.0026747 0.9820166 0.958209 1.0042391 0.9878674 0.988012 0.9887088

bn3.bias f4 [64]
00000000: a13f d6bc ad6d 64ba 30a4 dbbb 259a 83bc
00000010: a92a 0ebd fcac 7fbb 1212 023c c20c 523b
00000020: 1b51 32bc d569 723b 6b1d 38bc d34a 19bc
00000030: c5df ebbb 65d8 8bbc d4cc c8bb 5e1c 77bc
00000040: 61fb b43b 380b 6c3a 2c4b b2bc 2a60 8dbb
00000050: 9ac1 53bb 4ed0 73ba 7ae0 113b cb14 003c
00000060: 9f48 4bbb 9bbf 403c 8c92 253b 747f d03b
00000070: a741 b8bb e482 433b 82fc 323c 0ec8 853c
00000080: 37fd 883c b505 2dbc 6501 b4bb f815 033b
00000090: a1ae 283b 4393 83bc 3db8 113c 5b3d e03b
000000a0: 02e5 e13b 754d 2abb 40a5 c3bc f649 a9bc
000000b0: 53c4 10bd 6d9c 033c efb5 1c3b c035 cfba
000000c0: 9cb1 ed3b a710 7f3b c6d0 81bc 01a6 47bb
000000d0: 918b 0ebd ca46 b7bb 4abb dfbc 97a9 563b
000000e0: 2bda cd3b d855 11bb e7f7 073b 2eaa dabc
000000f0: 0da2 093b b302 6cbc d8d9 5e3a fb5a 8a3b
-0.026153388 -0.0008713853 -0.0067029223 -0.016064713 -0.034708653 -0.0039013019 0.007938879 0.0032051061
-0.010883595 0.003698935 -0.011237483 -0.009356218 -0.0071983063 -0.017070958 -0.006127933 -0.015082447
0.0055231308 0.0009004357 -0.02176436 -0.004314442 -0.003231144 -0.0009300754 0.0022259043 0.007817457
-0.0031018627 0.011764432 0.002526435 0.00636285 -0.0056230607 0.0029832656 0.01092446 0.016330745
0.016722305 -0.010560443 -0.0054933303 0.0020002108 0.0025738853 -0.01606143 0.0088940235 0.0068432516
0.006893755 -0.002598611 -0.023882508 -0.02066515 -0.03534348 0.0080329 0.0023912152 -0.0015808865
0.0072538387 0.0038919838 -0.015846621 -0.0030463936 -0.03480107 -0.0055931555 -0.027310986 0.0032754892
0.006282111 -0.002217641 0.0020747127 -0.026692476 0.002100113 -0.01440494 0.0008501089 0.0042222715

bn3.running_mean f4 [64]
00000000: fd40 95be 32ec b5bc bf68 0fbe f2e6 11bd
00000010: 94ff 053e 70ec 2e3d 093e 6dbe 7308 ccbd
00000020: a4af 1dbf 38d1 3b3e d51a d03c a418 d03e
00000030: f713 3fbd f76e d8be 3434 0b3e 09fb d7be
00000040: dcaa 633e 0f6d b43e a716 a73e ddcf d0be
00000050: c99d 1d3e 67aa aebe 909f e8be d49c 083e
00000060: 8366 9ebe ed0b c6be f588 b6be 9c89 a43e
00000070: 680f d5bc a8e2 2fbe 3965 adbd 0251 d5be
00000080: 67b1 b5be 2c9a a93e ed0c 8cbe 82aa 05bf
00000090: 8fae dbbe 54b9 a0be 6ecc d63e e745 033d
000000a0: 76f6 c93e 7f19 5bbe 2ba9 31bd f178 e03e
000000b0: 509e edbe dc75 d2bc 163d 75be 43a6 eebe
000000c0: 4821 d1bd 6f4c d73e 8329 c23e e105 b1be
000000d0: 0ca8 96bd 5b06 d4ba 1664 1c3e 2cc6 29be
000000e0: 9dfd cebe c83f 6f3e 0255 c6be e37d 8abe
000000f0: db9a 8abe 959f 403e d5c5 44be e46b d5bd
-0.29151145 -0.022207353 -0.14004801 -0.035620637 0.13085777 0.042705953 -0.23168196 -0.09962549
-0.6159613 0.1834153 0.02540342 0.406438 -0.0466499 -0.4227216 0.13594133 -0.42183712
0.22233146 0.35239455 0.3263447 -0.40783587 0.15392222 -0.34114382 -0.45434237 0.13341075
-0.30937585 -0.38680974 -0.35651365 0.32136238 -0.026008323 -0.17176306 -0.08466572 -0.41663367
-0.3548691 0.33125436 -0.27353612 -0.522133 -0.42906615 -0.31391394 0.41952842 0.032049086
0.39445847 -0.21396445 -0.04337422 0.4384227 -0.46409845 -0.025690965 -0.23949084 -0.46611223
-0.10211426 0.42050502 0.37922296 -0.34574798 -0.07356271 -0.001617621 0.15272555 -0.16579503
-0.40427867 0.23364174 -0.3873673 -0.2704917 -0.2707127 0.18810876 -0.19216092 -0.10420969

bn3.running_var f4 [64]
00000000: b2e9 ee3e 7e7e 863e bf26 9a3e 6250 093f
00000010: 8c28 283f 32ce 293e c2f5 f93e 90f7 c63e
00000020: 8358 5f3e 7c36 873e d16a f23e bc96 0a3f
00000030: b75c b23e 8f5a be3e 6845 8f3e d2c7 c63e
00000040: 94bd 7b3e 6e36 903e 1b68 bb3e 4f32 983e
00000050: e63d 3d3e 24be d43e 7df4 603e 531f 323f
00000060: 25c3 903e d3c6 953e 2e0f 303f 1248 793e
00000070: ca21 a13e 21d3 373e bdf1 bf3e b91a 3d3f
00000080: 882e a13e 2e7b 113f 89b1 e73e bed7 5c3e
00000090: 75b3 813e 6c73 113f f903 073f 4af8 e23e
000000a0: 7f37 0d3f 0524 803e d93a be3e 751c 873e
000000b0: a770 433f 5650 893e 6827 593e f7aa 683e
000000c0: fc3d 2a3e 7930 b83e a531 883e 8cf2 843e
000000d0: eaa8 503e 48eb c73e 4b05 cb3e 0418 a53e
000000e0: 4900 203f 6498 f23d 7a84 9c3e ecee 173e
000000f0: 88c6 e23e c8b7 c93e e909 9c3e 487d 993e
0.4666267 0.2626838 0.30107686 0.5363828 0.6568687 0.16582564 0.4882031 0.3886075
0.21811108 0.26408756 0.4734712 0.5413625 0.3483636 0.37178466 0.2798264 0.38824326
0.24584037 0.28166527 0.36602864 0.29725882 0.18480644 0.41551316 0.21968265 0.69579047
0.28273883 0.29253253 0.6877316 0.24343899 0.31471092 0.17951633 0.3748912 0.738689
0.31480813 0.5682858 0.45252636 0.21566674 0.25332227 0.56816745 0.52740437 0.44330055
0.55162805 0.2502748 0.37154272 0.26388898 0.7634377 0.26819104 0.21206439 0.22721468
0.16625208 0.35974482 0.26600376 0.259663 0.20376936 0.39046693 0.39652476 0.32244885
0.62500435 0.118454725 0.30569822 0.14837235 0.44292092 0.39398026 0.3047631 0.29978395
